models/fraud/1/model.onnx (onnx, 13098 bytes, 11 tensors)

sequential/dense_3/MatMul/ReadVariableOp:0 f4 [32, 1]
0.5327539 -0.12434052 0.49588808 -0.21298544 -0.35365847 -0.28162178 -0.14723478 -0.51198334
-0.65841764 -0.35190582 0.42472166 0.36387378 -0.63335437 0.75328964 -0.5084306 -0.20061281
0.4612064 0.59515405 -0.48200092 -0.5229869 -0.19358733 -0.17635603 -0.12157535 0.60868627
-0.43382686 -0.39370435 0.55241925 -0.74150276 -0.5359189 0.58595985 0.43067396 0.39955002
00000000: 8f62 083f 3ea6 febd 0be5 fd3e db18 5abe
00000010: b912 b5be bb30 90be b7c4 16be 5711 03bf
00000020: 0f8e 28bf 002d b4be 1e75 d93e aa4d ba3e
00000030: 8323 22bf 97d7 403f 8228 02bf 726d 4dbe
00000040: 3f23 ec3e 045c 183f d3c8 f6be 78e2 05bf
00000050: c23b 46be ad96 34be 7ffc f8bd ddd2 1b3f
00000060: 8e1e debe 9e93 c9be 596b 0d3f 20d3 3dbf
00000070: fb31 09bf 7701 163f 4c81 dc3e d291 cc3e

sequential/dense_2/MatMul/ReadVariableOp:0 f4 [32, 32]
-0.24475826 -0.0690104 -0.41567856 0.041810054 -0.38386896 -0.15391271 0.16339713 -0.27334005
-0.4448813 -0.17507432 -0.04540644 -0.13012654 -0.3547251 -0.1319209 -0.4240846 -0.002932005
-0.14135271 -0.045483835 -0.097713865 -0.49887487 -0.1508645 0.20644026 0.12564184 -0.2592555
-0.56964815 -0.002652572 -0.23172547 -0.2918643 -0.3691229 -0.13221309 0.051752236 -0.10707213
-0.21972916 0.4790792 -1.19688 0.18666469 0.027495211 -0.21329318 0.14228739 -0.11842622
0.0885504 -0.32210702 -0.34649286 -1.2060491 -0.33746737 -0.9267385 0.041050237 -0.19040525
-0.4556384 -0.6661293 -0.3193689 0.26140898 -0.24649729 0.35491425 0.2735086 -0.3176509
0.09488874 -0.551555 -0.93261236 0.08527161 -0.5690175 -1.0023613 -0.52486855 -0.30560577
-0.042902872 -0.37908718 -0.0926442 -0.07265502 0.33843818 -0.04699329 0.262411 0.32140687
0.34521237 0.02709771 0.100456804 0.10213657 0.02520111 -0.071381874 0.20081437 0.013448277
-0.23669124 0.08024006 0.1923311 0.5802098 0.029985672 0.12104669 -0.32543093 0.24221253
0.36884344 0.14485355 0.08468649 0.33002904 -0.11813068 0.30669844 0.09623496 0.10429366
-0.028938672 0.06711994 0.09127912 -0.2597314 -0.14380747 -0.5991915 -0.24302682 0.08822201
-0.13163401 -0.17760743 -0.053990435 0.14226831 -0.23245774 0.26246196 -0.0063230135 -0.24709137
0.20911884 0.043859817 -0.13858065 0.12659343 -0.49454838 0.17995189 0.02035486 -0.10695986
-0.10568278 0.04186572 -0.14723246 -0.16917072 -0.14761788 -0.027776528 0.21372005 -0.0453337
0.071661435 -0.3026209 -0.07219487 -0.13196497 0.21507251 -0.21089649 0.14414349 0.09054511
0.18757373 0.20815541 0.0828631 -0.064458914 0.11578238 0.23247623 0.0886481 0.30382103
0.014758946 -0.3013082 0.16215184 0.18201561 0.39131576 -0.2478368 -0.07702495 -0.37704837
-0.23231499 0.15332226 -0.2910356 0.2381288 0.24249396 -0.08006618 -0.3299178 0.30823657
-0.45891666 0.19867444 -0.11959661 -0.097265236 -0.24638598 -0.058966365 0.040536396 -0.47654003
-0.49899253 -0.34573412 -0.42808068 -0.40305853 -0.07437706 -0.30448297 -0.120010406 0.2560859
-0.23282057 -0.35059446 -0.25933638 -0.079723254 0.18213286 0.074411444 -0.27712652 -0.2867281
-0.16419269 0.071546264 -0.3130466 -0.16894916 0.06086467 -0.3126431 -0.34141886 -0.33830723
-0.15478362 0.053472284 -0.42331284 -0.4302881 -0.022077983 0.051158387 0.033214256 -0.010743551
-0.078686595 -0.031985488 -0.3615732 -0.4250353 -0.06680095 -0.33153054 -0.18117832 0.12834072
-0.23482427 -0.2107636 0.30718267 -0.36227894 -0.13311124 0.12853947 0.04585323 -0.30114204
-0.14481764 -0.025106074 -0.36872613 0.13615943 -0.08988346 -0.37259752 -0.41929832 -0.24275576
0.2275527 0.044381972 -0.24233432 0.27992347 0.4933184 -0.14814577 -0.25721902 0.26886576
0.35009062 -0.060925253 0.35919127 -0.12483145 0.14706716 0.012004908 0.15588082 -0.05890813
-0.21430667 0.14497407 0.28135407 0.13326086 0.065431654 0.2263799 -0.11033589 0.16678181
0.13827702 0.3127625 0.20560119 0.2433135 0.40205237 -0.24225745 0.22062811 0.08979602
00000000: e9a1 7abe 5355 8dbd d2d3 d4be 0541 2b3d
00000010: 798a c4be 4b9b 1dbe 9451 273e 3af3 8bbe
00000020: 7bc7 e3be af46 33be 1afc 39bd e43f 05be
00000030: 879e b5be 4616 07be 9e21 d9be e226 40bb
00000040: c4be 10be 424d 3abd 351e c8bd 876c ffbe
00000050: 397c 1abe 1365 533e 41a8 003e 23bd 84be
00000060: 76d4 11bf c6d6 2dbb 7149 6dbe 3d6f 95be
00000070: adfd bcbe de62 07be 27fa 533d a248 dbbd
00000080: ae00 61be de49 f53e 5d33 99bf 0725 3f3e
00000090: a33d e13c 8769 5abe c9b3 113e 7289 f2bd
000000a0: ea59 b53d 36eb a4be 8367 b1be d15f 9abf
000000b0: 86c8 acbe bc3e 6dbf 4b24 283d 98f9 42be
000000c0: 7049 e9be 7387 2abf 5284 a3be 66d7 853e
000000d0: c969 7cbe 52b7 b53e 5209 8c3e 24a3 a2be
000000e0: 0755 c23d b532 0dbf afbf 6ebf e2a2 ae3d
000000f0: 22ab 11bf 604d 80bf c95d 06bf 5c78 9cbe
00000100: ecba 2fbd b717 c2be 3ebc bdbd 28cc 94bd
00000110: c547 ad3e 097c 40bd bc5a 863e 718f a43e
00000120: adbf b03e 04fc dd3c 4cbc cd3d fa2c d13d
00000130: 8f72 ce3c a930 92bd 48a2 4d3e 2956 5c3c
00000140: 305f 72be e754 a43d 72f2 443e a188 143f
00000150: 83a4 f53c 54e7 f73d e29e a6be 9006 783e
00000160: 0cd9 bc3e 7d54 143e 1c70 ad3d 91f9 a83e
00000170: 7fee f1bd 9407 9d3e d616 c53d ea97 d53d
00000180: cb10 edbc 2e76 893d 8cf0 ba3d 84fb 84be
00000190: 4442 13be 9d64 19bf 06dc 78be bead b43d
000001a0: 11cb 06be b9de 35be 1325 5dbd c9ae 113e
000001b0: 6709 6ebe 6a61 863e 4831 cfbb 8505 7dbe
000001c0: 4023 563e 5aa6 333d 16e8 0dbe b5a1 013e
000001d0: 7235 fdbe 4f45 383e 3cbf a63c c50d dbbd
000001e0: 3770 d8bd 647b 2b3d 1bc4 16be 173b 2dbe
000001f0: 2429 17be 9a8b e3bc 6ed9 5a3e d4af 39bd
00000200: 3bc3 923d 20f1 9abe e7da 93bd d321 07be
00000210: f83b 5c3e 40f5 57be 5a9a 133e b76f b93d
00000220: 5413 403e b126 553e 21b4 a93d 0903 84bd
00000230: 501f ed3d 400e 6e3e 238d b53d 6e8e 9b3e
00000240: 82cf 713c 1245 9abe 220b 263e 4d62 3a3e
00000250: 8a5a c83e eec8 7dbe 42bf 9dbd 7c0c c1be
00000260: fbe3 6dbe 8300 1d3e 9e02 95be 09d8 733e
00000270: 5650 783e bdf9 a3bd fcea a8be 2fd1 9d3e
00000280: 20f7 eabe 5071 4b3e 11ef f4bd ff32 c7bd
00000290: 9b4c 7cbe b786 71bd 7e09 263d 0efd f3be
000002a0: f37b ffbe 1004 b1be 642d dbbe b05d cebe
000002b0: 0053 98bd 31e5 9bbe 04c8 f5bd b11d 833e
000002c0: 8468 6ebe 1e81 b3be bdc7 84be f245 a3bd
000002d0: 0981 3a3e 0765 983d 87e3 8dbe 07ce 92be
000002e0: 2122 28be d986 923d a547 a0be 0201 2dbe
000002f0: 3b4d 793d c212 a0be 74ce aebe 9b36 adbe
00000300: 997f 1ebe c105 5b3d 76bc d8be b94e dcbe
00000310: e3dc b4bc 758b 513d ac0b 083d b805 30bc
00000320: 7026 a1bd 3703 03bd 1f20 b9be 3a9e d9be
00000330: f0ce 88bd 5fbe a9be cf86 39be c06b 033e
00000340: c675 70be 6ad2 57be 0c47 9d3e a07c b9be
00000350: 504e 08be da9f 033e 99d0 3b3d 4a2f 9abe
00000360: 134b 14be 41ab cdbc acc9 bcbe 616d 0b3e
00000370: d214 b8bd 1ac5 bebe 45ae d6be f794 78be
00000380: 9303 693e dfc9 353d 7d26 78be 2152 8f3e
00000390: 3b94 fc3e 86b3 17be 36b2 83be c6a8 893e
000003a0: 143f b33e c28c 79bd ebe7 b73e a2a7 ffbd
000003b0: c698 163e 3cb0 443c 399f 1f3e a749 71bd
000003c0: 3573 5bbe 1574 143e a40d 903e 8975 083e
000003d0: 0801 863d 22d0 673e c8f7 e1bd dac8 2a3e
000003e0: 7e98 0d3e 6822 a03e 1e89 523e 2d27 793e
000003f0: cfd9 cd3e 5612 78be 56ec 613e fae6 b73d

sequential/dense_2/BiasAdd/ReadVariableOp:0 f4 [32]
0.0028506103 -0.002170702 -0.003954046 0.0055291047 -0.0030047805 -0.0015757309 0.00086700893 0.0008361208
0.0031869707 0.0022973607 -0.0006664303 -0.00399013 -0.005087035 0.003111084 0.0018101523 2.5827612e-05
2.7225691e-05 -0.007703472 -0.00037986855 0.008252276 0.0012529858 0.0037400655 -0.0029605809 -0.003979466
0.0039667496 0.0061783455 0.0022828362 0.006252269 -0.0066006305 0.0021645809 0.0072209537 -0.004469816
00000000: 4ed1 3a3b 5642 0ebb f190 81bb 7e2d b53b
00000010: daeb 44bb c188 ceba fc47 633a 1e2f 5b3a
00000020: 7fdc 503b 518f 163b 61b3 2eba a3bf 82bb
00000030: 24b1 a6bb 54e3 4b3b a242 ed3a 60a8 d837
00000040: ba62 e437 686d fcbb 1829 c7b9 8e34 073c
00000050: 3a3b a43a e31b 753b 4e06 42bb 2e66 82bb
00000060: 82fb 813b b873 ca3b a39b 153b d5df cc3b
00000070: 1a4a d8bb a4db 0d3b c09d ec3b 8977 92bb

sequential/dense_1/MatMul/ReadVariableOp:0 f4 [32, 32]
-0.8874258 -0.1379064 -0.19159734 -0.1408727 0.14840661 -0.90381515 0.17656057 0.25020885
-0.023326244 -0.23828214 0.07773241 0.094510905 0.22115561 -0.082919784 0.2710586 0.08250741
0.015434733 -0.21734326 0.0016378388 -0.7876867 -0.12777829 -0.97515535 -0.07332962 -0.121507026
-0.1830028 -1.0623817 -0.22901708 -0.19291939 -0.023722677 0.20182241 -0.79494196 -0.15558176
-0.633078 -0.13152294 0.15339334 -0.40168193 1.0999619 -0.67867464 0.22822724 0.25416067
-0.12551981 -0.36058766 -0.42846948 -0.97508293 0.037608016 -0.07915804 0.25400245 -0.6672983
-1.103981 -0.2196875 -0.46551225 0.25810367 0.08626433 -0.047588646 -0.7866965 -0.02769556
0.3186639 -0.17976375 0.20556965 0.090252176 0.5097886 -0.72445256 -0.04077737 -0.82393515
0.1267087 0.077203095 0.21740358 -0.7358703 0.29270467 0.26009712 0.5689455 -0.028417375
-0.2581117 -0.587354 -0.24253964 -0.2690883 -0.44802547 0.40177813 -0.3068704 -0.18560588
0.14142607 -0.9763601 -0.16420498 0.1648372 -0.49108243 0.01690474 -0.09698227 -1.1346321
-0.5108185 -0.095269255 0.31468838 -0.13524969 0.4529104 -0.039125983 -0.020771198 -0.09049575
-0.5768862 -1.0518771 -0.066874295 0.18523838 -0.30442327 0.041905385 -0.67386186 -0.25261188
0.20135851 -0.005795911 0.04093856 0.118475966 -0.36088994 0.034460645 0.024374787 -0.03245128
0.14262874 0.052453604 -0.023187302 0.016210804 -0.011794879 -0.7984861 -0.102677256 0.0016496544
-0.058500424 -0.78043735 -0.015521119 -0.22528075 -0.14926307 -0.12843454 -0.7291839 -0.022434253
-0.42227757 -1.0562042 -0.06902464 0.082343616 -0.5994224 0.08784583 -0.72938126 -0.073770866
0.07705453 0.100480355 0.064284354 0.22444853 -0.56828594 -0.32290354 0.04235498 0.034039143
-0.15159546 -0.08539159 -0.0008561614 0.057041176 -0.08480662 -0.87914455 0.0070629152 -0.045712415
0.13545664 -0.75874877 0.1292909 -0.44536352 -0.17938934 0.031621907 -0.9235395 -0.1323791
-0.12437934 -0.16923764 -0.056009702 -0.7516456 -0.18632351 0.39536098 -0.62455297 0.09046922
0.43619272 -0.33347857 -0.60772884 -0.3258006 0.39358523 0.18664804 -0.07311234 -0.8553187
-0.49551862 0.06713913 -0.38281944 0.3069526 -0.31429216 -0.06797703 -0.3931624 -0.34801897
-0.33499467 -0.0010105557 0.77896905 0.17208959 0.23397356 -0.6004637 -0.0334305 -0.031265292
-0.54977465 0.06813805 0.06738194 0.11096914 -0.05544089 -0.32440987 -0.313081 0.3955597
0.22795542 -0.02896674 -0.7715134 -0.57501847 0.3706562 0.15488422 0.025701376 -0.3358788
-0.60897374 0.026651775 -0.7562667 -0.11656002 -0.059609056 -0.019916594 -0.6837268 -0.089413516
0.099442884 0.014364075 0.26700553 0.19484867 0.1613284 -0.33043918 0.002299247 -0.5553205
-0.4560077 -0.9529257 -0.018933035 0.028015397 0.011657338 0.09240822 -0.60980076 0.25337437
0.09011273 0.13454477 -0.043082535 0.21764664 -0.5378994 0.00931966 0.12507728 0.029024485
0.01611897 -0.097260535 0.06370169 0.059682366 -0.10327736 -0.9679323 0.22612405 0.033634383
0.1451652 -0.73074955 0.1371535 -0.17187427 -0.27623132 0.006591957 -0.820646 -0.046674363
00000000: 562e 63bf 5637 0dbe 1832 44be ef40 10be
00000010: e7f7 173e 6e60 67bf 4bcc 343e 601b 803e
00000020: ae16 bfbc 3c00 74be 2b32 9f3d ef8e c13d
00000030: 9e76 623e d9d1 a9bd 31c8 8a3e a5f9 a83d
00000040: f6e1 7c3c 3b8f 5ebe c0ac d63a d6a5 49bf
00000050: 50d8 02be c8a3 79bf d72d 96bd add8 f8bd
00000060: 1665 3bbe 20fc 87bf 7483 6abe a98c 45be
00000070: 0f56 c2bc 89aa 4e3e 5181 4bbf d350 1fbe
00000080: 6611 22bf f3ad 06be 2513 1d3e 41a9 cdbe
00000090: 8dcb 8c3f 9fbd 2dbf 67b4 693e 5921 823e
000000a0: 4488 00be f29e b8be 5a60 dbbe 099f 79bf
000000b0: dd0a 1a3d 9c1d a2bd 9c0c 823e 10d4 2abf
000000c0: 404f 8dbf c3f5 60be 9f57 eebe 2a26 843e
000000d0: 5aab b03d 50ec 42bd f164 49bf cde1 e2bc
000000e0: ea27 a33e fd13 38be da80 523e 22d6 b83d
000000f0: 8181 023f b975 39bf 2c06 27bd 6aed 52bf
00000100: edbf 013e a81c 9e3d 0b9f 5e3e ff61 3cbf
00000110: 63dd 953e 732b 853e 6aa6 113f 8ecb e8bc
00000120: 3727 84be d55c 16bf 505c 78be f1c5 89be
00000130: 9863 e5be ddb5 cd3e 1e1e 9dbe 780f 3ebe
00000140: ffd1 103e bcf2 79bf 5a25 28be 15cb 283e
00000150: 286f fbbe cf7b 8a3c a49e c6bd a03b 91bf
00000160: 00c5 02bf 871c c3bd d61e a13e e57e 0abe
00000170: dfe3 e73e 9142 20bd 5c28 aabc d655 b9bd
00000180: d0ae 13bf e9a3 86bf 64f5 88bd 21af 3d3e
00000190: 5edd 9bbe fba4 2b3d 3682 2cbf 5856 81be
000001a0: ed30 4e3e a0eb bdbb 31af 273d 87a3 f23d
000001b0: 91c6 b8be 9b26 0d3d a2ad c73c a2eb 04bd
000001c0: 450d 123e 97d9 563d 4cf3 bdbc 85cc 843c
000001d0: 4f3f 41bc 9669 4cbf 7448 d2bd 3739 d83a
000001e0: 249e 6fbd beca 47bf 4b4c 7ebc ffaf 66be
000001f0: 6bd8 18be 5884 03be ccab 3abf 0ac8 b7bc
00000200: c434 d8be b331 87bf ca5c 8dbd c5a3 a83d
00000210: bf73 19bf 84e8 b33d bbb8 3abf 2e15 97bd
00000220: c4ce 9d3d a5c8 cd3d 84a7 833d d6d5 653e
00000230: 307b 11bf 9d53 a5be 6a7c 2d3d a16c 0b3d
00000240: d73b 1bbe c9e1 aebd 0570 60ba 02a4 693d
00000250: 18af adbd 9e0f 61bf 0770 e73b f13c 3bbd
00000260: 25b5 0a3e 5c3d 42bf d564 043e b006 e4be
00000270: d7b1 37be f985 013d 166d 6cbf 638e 07be
00000280: 98ba febd a24c 2dbe 6e6a 65bd d96b 40bf
00000290: 97cb 3ebe c16c ca3e b4e2 1fbf ed47 b93d
000002a0: a754 df3e b4bd aabe 1e94 1bbf 56cf a6be
000002b0: 0184 c93e aa20 3f3e ecbb 95bd 2bf6 5abf
000002c0: 9eb4 fdbe 3d80 893d e900 c4be e428 9d3e
000002d0: e7ea a0be 8b37 8bbd 954c c9be 8b2f b2be
000002e0: 6c84 abbe 9f74 84ba 846a 473f 4138 303e
000002f0: c496 6f3e fdb7 19bf 6cee 08bd 0910 00bd
00000300: 08be 0cbf f68b 8b3d 8bff 893d ca43 e33d
00000310: fd15 63bd 0d19 a6be 274c a0be cd86 ca3e
00000320: 256d 693e a84b edbc e781 45bf 6934 13bf
00000330: a6c6 bd3e f899 1e3e b18b d23c 4ef8 abbe
00000340: b4e5 1bbf d354 da3c b29a 41bf 05b7 eebd
00000350: a028 74bd 2028 a3bc b808 2fbf 6f1e b7bd
00000360: b6a8 cb3d 4c57 6b3c f3b4 883e 6986 473e
00000370: 4633 253e 532f a9be f7ae 163b 7c29 0ebf
00000380: d779 e9be f0f2 73bf 7419 9bbc 8c80 e53c
00000390: 6bfe 3e3c 8540 bd3d e71b 1cbf 49ba 813e
000003a0: 068d b83d 1bc6 093e 5077 30bd c3de 5e3e
000003b0: c6b3 09bf 7db1 183c 4214 003e c2c4 ed3c
000003c0: ee0b 843c 8830 c7bd 0876 823d 7f75 743d
000003d0: 1583 d3bd 69ca 77bf 108d 673e 35c4 093d
000003e0: 30a6 143e 6712 3bbf f871 0c3e cfff 2fbe
000003f0: 316e 8dbe 5801 d83b db15 52bf 9e2d 3fbd

sequential/dense_1/BiasAdd/ReadVariableOp:0 f4 [32]
-0.0020709627 0.0019592848 -0.0025156743 0.00046836873 -0.0011746498 -0.001519706 0.00322527 -0.00091616623
-0.0022020526 0.0055918875 -0.02022306 0.00634557 -0.0008478861 -0.0003318731 -0.0011740774 -0.0031977878
-0.004643156 0.011229692 -0.00402887 -0.0013968492 -0.0005332142 -0.015265132 -0.006157378 0.005892112
0.0062050624 -0.0142446635 -0.0026654855 -0.018676627 0.011379719 0.01427647 -0.0070767314 -0.013425868
00000000: fdb8 07bb 5867 003b 03de 24bb 638f f539
00000010: b5f6 99ba df30 c7ba 0d5f 533b e02a 70ba
00000020: 5050 10bb 273c b73b d5aa a5bc 80ee cf3b
00000030: ac44 5eba 41ff adb9 80e3 99ba fa91 51bb
00000040: 9e25 98bb befc 373c 9c04 84bb 7b16 b7ba
00000050: 66c7 0bba 9b1a 7abc d5c3 c9bb 9e12 c13b
00000060: d653 cb3b 7362 69bc 6daf 2ebb baff 98bc
00000070: 0072 3a3c dbe7 693c ede3 e7bb 2cf8 5bbc

sequential/dense/MatMul/ReadVariableOp:0 f4 [6, 32]
0.41109928 0.016515372 -0.35750887 0.0051895655 0.0005560374 -0.40361732 0.0013010598 -0.013745588
0.17349952 0.35374844 -0.55073994 0.3737317 -0.090952784 0.20332669 0.47111732 -0.029723618
0.33502784 0.038506713 0.06312943 -0.41139385 -0.37292647 0.014841799 -0.42548892 -0.43337333
0.030516934 -0.15883282 0.178485 0.09075592 0.011071329 -0.40228054 -0.3627427 0.088907175
0.031227592 -0.6673338 -0.44623873 0.5651414 0.6300343 0.0743538 -0.3786049 0.6222017
-0.5339836 -0.0045807455 -0.70502645 0.29147854 0.54348046 -0.31799316 -0.41582006 0.47349215
-0.0034699198 -0.44624236 -0.6093179 0.10301026 0.15825744 -0.49031574 -0.54683346 0.022795938
-0.1795551 -0.17606829 0.20966452 0.0020533535 -0.5899142 0.02973231 -0.45560387 0.12671214
-0.17887296 0.30030194 0.024741853 0.0027034516 -0.009814684 0.13009675 0.15290858 -0.006914907
0.013737981 -0.10810231 0.037511595 0.03967521 -0.0065476303 0.10426882 -0.0051748995 -0.015163747
-0.07106721 -0.064594686 -0.06597708 0.14024167 -0.18024749 0.15536761 0.06169699 0.33193243
-0.2296971 0.17591003 -0.009092697 0.09511511 -0.012677054 0.32338476 -0.013696062 -0.2235793
-0.042726055 0.54651123 -0.3352895 -0.001185897 -0.017507033 0.07210651 0.29342327 -0.0024051983
-0.011125479 -0.23807909 0.02743446 0.053734533 -0.02643564 -0.19170031 -0.008895026 0.00208473
-0.2249319 0.39199847 -0.14874394 0.12591748 -0.11680826 0.47498238 0.27953842 -0.0642663
0.35071033 -0.40233403 0.0031238147 0.41416082 -0.11102927 -0.10496356 -0.29450944 -0.17285436
-0.021164278 0.30375725 0.20462623 -0.1297054 0.020090971 0.3550392 -0.30344746 -0.016342847
-0.4071814 0.019139145 -0.3118791 -0.14678657 0.05325175 0.13043545 -0.1126268 -0.118141025
0.04369661 0.26620084 0.3323145 0.44643563 -0.5621947 0.29404396 -0.44885272 -0.21803693
0.37737256 -0.28035665 -0.31316915 0.06102578 -0.1598274 0.15912367 -0.2175117 -0.49992767
-0.020019045 0.3229779 0.3350734 -0.01226807 -0.01832791 -0.5323774 -0.24761336 -0.007573785
0.44992092 0.14834064 0.5077903 -0.031752434 -0.015326417 0.0646075 -0.0532904 0.22314909
0.21170121 -0.27591223 -0.5555728 -0.48938325 0.39061493 0.3700974 -0.3349341 -0.45249617
-0.064554214 -0.26465854 0.33691707 -0.48107922 -0.47038278 -0.3173531 0.35213155 0.40055966
00000000: 9b7b d23e 3f4b 873c 670b b7be 3b0d aa3b
00000010: 0ac3 113a eea6 cebe 5388 aa3a 2d35 61bc
00000020: dca9 313e 841e b53e 4bfd 0cbf c359 bf3e
00000030: 7445 babd df34 503e 4a36 f13e f27e f3bc
00000040: c588 ab3e 37b9 1d3d 014a 813d 37a2 d2be
00000050: 38f0 bebe 042b 733c afd9 d9be 1ce3 ddbe
00000060: a6fe f93c 12a5 22be c6c4 363e 3dde b93d
00000070: 8564 353c b7f7 cdbe 69b9 b9be f714 b63d
00000080: 02d1 ff3c 63d6 2abf 6779 e4be 1bad 103f
00000090: ee49 213f ce46 983d 80d8 c1be 9c48 1f3f
000000a0: 26b3 08bf 141a 96bb 9d7c 34bf ad3c 953e
000000b0: 8921 0b3f 00d0 a2be 5ee6 d4be 906d f23e
000000c0: 9867 63bb e179 e4be 42fc 1bbf 0bf7 d23d
000000d0: 3d0e 223e aa0a fbbe 47fd 0bbf 8cbe ba3c
000000e0: 4bdd 37be 3f4b 34be 4cb2 563e 8e91 063b
000000f0: 9e04 17bf 2c91 f33c e944 e9be d4c0 013e
00000100: 792a 37be 2dc1 993e 6daf ca3c 642c 313b
00000110: c5cd 20bc 1538 053e 1194 1c3e 7296 e2bb
00000120: 4515 613c be64 ddbd c2a5 193d 7982 223d
00000130: 818d d6bb e48a d53d 3492 a9bb 5d71 78bc
00000140: af8b 91bd 384a 84bd fe1e 87bd 839b 0f3e
00000150: cc92 38be b018 1f3e fcb5 7c3d 0cf3 a93e
00000160: b735 6bbe c221 343e 89f9 14bc b6cb c23d
00000170: 6bb3 4fbc b092 a53e 7365 60bc f9f1 64be
00000180: 8401 2fbd 29e8 0b3f 11ab abbe 1a70 9bba
00000190: e96a 8fbc 94ac 933d 933b 963e 88a0 1dbb
000001a0: a447 36bc 01cb 73be 3cbe e03c be18 5c3d
000001b0: 8e8f d8bc 164d 44be 71bc 11bc f79f 083b
000001c0: 8c54 66be 06b4 c83e 5550 18be 83f0 003e
000001d0: 2b39 efbd e430 f33e a91f 8f3e 0d9e 83bd
000001e0: 4e90 b33e bafe cdbe eab8 4c3b e30c d43e
000001f0: 5063 e3bd 23f7 d6bd f1c9 96be bc00 31be
00000200: b560 adbc 1286 9b3e 8a89 513e 7ed1 04be
00000210: d295 a43c b3c7 b53e 775d 9bbe 6fe1 85bc
00000220: 157a d0be b2c9 9c3c 9eae 9fbe 384f 16be
00000230: 821e 5a3d df90 053e e1a8 e6bd ecf3 f1bd
00000240: 37fb 323d 7a4b 883e 2025 aa3e 3693 e43e
00000250: feeb 0fbf ee8c 963e 06d0 e5be 1345 5fbe
00000260: fa36 c13e e88a 8fbe b557 a0be 2bf6 793d
00000270: cba9 23be 51f1 223e 63bb 5ebe 85f6 ffbe
00000280: fbfe a3bc 5c5d a53e be8e ab3e 0400 49bc
00000290: 6a24 96bc e349 08bf 5b8e 7dbe 832d f8bb
000002a0: 095c e63e 9ce6 173e 8cfe 013f d70e 02bd
000002b0: a71b 7bbc f050 843d 0947 5abd 3281 643e
000002c0: 34c8 583e 5e44 8dbe 053a 0ebf 7190 fabe
000002d0: aefe c73e 687d bd3e 7b7c abbe 94ad e7be
000002e0: 0035 84bd 5381 87be 6580 ac3e 0450 f6be
000002f0: 03d6 f0be 1b7c a2be 964a b43e 2816 cd3e

sequential/dense/BiasAdd/ReadVariableOp:0 f4 [32]
-0.39020815 -0.35007367 -0.11856052 -0.41622287 -0.40886086 -0.23439102 0.0028265356 -0.42174095
0.05824942 -0.54856634 -0.040678423 -0.13924149 -0.27348548 -0.2921545 -0.24822113 -0.50995994
-0.607584 0.2235106 -0.114046074 -0.33632934 -0.36921555 -0.31117934 0.06331977 -0.26683742
-0.028782345 -0.07043536 -0.40058747 -0.19806805 -0.23611124 0.09028853 -0.20584291 -0.18420891
00000000: 5dc9 c7be db3c b3be dccf f2bd 2a1b d5be
00000010: 3656 d1be 3304 70be 663d 393b 6eee d7be
00000020: f296 6e3d d86e 0cbf 6b9e 26bd 5295 0ebe
00000030: 4a06 8cbe 4695 95be ae2d 7ebe bc8c 02bf
00000040: a08a 1bbf f6df 643e fd90 e9bd 5c33 acbe
00000050: d209 bdbe e652 9fbe ccad 813d ea9e 88be
00000060: f4c8 ebbc 6a40 90bd cd19 cdbe 5ad2 4abe
00000070: 25c7 71be 31e9 b83d 7cc8 52be 43a1 3cbe

sequential/batch_normalization_1/batchnorm/sub:0 f4 [32]
0.53133655 -0.12259695 0.94438076 1.2722695 0.46804675 1.2646495 0.5341424 0.46600232
0.23760033 -0.10152088 0.569025 0.9602374 0.46515954 0.6368363 0.6216576 0.71227896
0.32935655 0.22925374 0.4124853 -0.067572266 0.67167586 -0.18998727 0.36051416 0.16845721
0.5958815 0.81625867 0.5473588 -0.7913343 0.50343233 0.5306537 0.12523049 0.5539634
00000000: ac05 083f 1c14 fbbd f0c2 713f bad9 a23f
00000010: d3a3 ef3e 09e0 a13f 8ebd 083f db97 ee3e
00000020: 804d 733e 2eea cfbd 9fab 113f 1ed2 753f
00000030: 6429 ee3e b407 233f f424 1f3f ea57 363f
00000040: 6ca1 a83e 7ec1 6a3e 4631 d33e 5463 8abd
00000050: f3f2 2b3f 068c 42be 5095 b83e 0c80 2c3e
00000060: b18b 183f 54f6 503f b51f 0c3f e294 4abf
00000070: f1e0 003f ecd8 073f 6c3c 003e 8cd0 0d3f

sequential/batch_normalization_1/batchnorm/mul:0 f4 [32]
1.2908735 0.89726907 1.0112722 1.6429608 1.0573794 1.0422368 0.8062269 0.9931467
0.7218069 1.4590396 1.3966087 1.0914912 0.944148 1.242342 1.1106884 0.7959008
1.4002557 1.2002726 0.95739645 1.145955 0.9839593 1.0003798 0.7946404 0.70157605
0.9776691 1.0290872 1.1979475 1.1280913 0.80173624 1.2208529 1.1874527 1.5003189
00000000: 583b a53f 6db3 653f 5e71 813f 8a4c d23f
00000010: 3558 873f 0468 853f e364 4e3f dd3e 7e3f
00000020: 56c8 383f cfc1 ba3f 13c4 b23f fcb5 8b3f
00000030: afb3 713f 1005 9f3f 0a2b 8e3f 28c0 4b3f
00000040: 943b b33f 88a2 993f ef17 753f a7ae 923f
00000050: c2e4 7b3f 720c 803f 8e6d 4b3f 7d9a 333f
00000060: 8648 7a3f 21b9 833f 5856 993f 4c65 903f
00000070: 963e 4d3f e844 9c3f 73fe 973f 730a c03f

sequential/batch_normalization/batchnorm/sub:0 f4 [32]
0.20519751 0.3119972 -0.4265687 0.42463654 -0.3665176 0.07534672 0.041687757 -0.38328832
-0.39075586 0.4666035 0.28405648 0.39638203 0.053591553 -0.9468272 -0.27770156 0.49780262
0.3195122 0.36231342 0.25133312 -0.007865682 0.48702013 0.27667648 0.41424465 0.52541053
0.08959949 0.3049311 -0.1580559 0.17696525 -0.6954639 0.3789761 0.17437857 0.60653317
00000000: 4c1f 523e 19be 9f3e 3667 dabe f669 d93e
00000010: 32a8 bbbe 624f 9a3d c8c0 2a3d 5e3e c4be
00000020: 2711 c8be a7e6 ee3e da6f 913e 96f2 ca3e
00000030: d182 5b3d 4463 72bf e62e 8ebe fcdf fe3e
00000040: 1a97 a33e 2581 b93e bcae 803e 10df 00bc
00000050: b45a f93e 8aa8 8d3e e017 d43e 4e81 063f
00000060: f07f b73d ee1f 9c3e 68d9 21be 6136 353e
00000070: ec09 32bf 2809 c23e 4c90 323e c245 1b3f

sequential/batch_normalization/batchnorm/mul:0 f4 [32]
0.5938497 1.0513395 0.64328355 0.7243535 0.6547637 0.8842617 0.53546524 0.85508287
0.83919436 1.0613196 0.5195342 0.680312 0.7168136 0.9825595 0.55561775 0.5418738
0.50334895 1.0059772 0.5234052 1.0199525 0.8380353 0.8486272 0.55255294 0.96131474
1.0138048 0.9317033 0.6730716 1.5586994 1.3757429 0.5390957 0.9327295 0.6383308
00000000: 8906 183f 4b92 863f 3bae 243f 3b6f 393f
00000010: 989e 273f fa5e 623f 4014 093f b6e6 5a3f
00000020: 71d5 563f 52d9 873f 3100 053f ed28 2e3f
00000030: 1981 373f 0589 7b3f f73c 0e3f 3eb8 0a3f
00000040: 7adb 003f dcc3 803f e2fd 053f ce8d 823f
00000050: 7b89 563f a23f 593f 1c74 0d3f b918 763f
00000060: 5bc4 813f 1c84 6e3f 6c4e 2c3f 7683 c73f
00000070: 5818 b03f 2d02 0a3f 5cc7 6e3f a669 233f
